…
2020-07-01 02:38:02,847   INFO  Database after filter Car: 10756
2020-07-01 02:38:02,847   INFO  Database after filter Cyclist: 580
2020-07-01 02:38:02,847   INFO  Database after filter Van: 838
2020-07-01 02:38:02,847   INFO  Database after filter Truck: 321
2020-07-01 02:38:02,847   INFO  Database after filter Tram: 199
2020-07-01 02:38:02,847   INFO  Database after filter Misc: 263
2020-07-01 02:38:02,847   INFO  Database after filter Person_sitting: 53
2020-07-01 02:38:06,637   INFO  DistributedDataParallel(
  (module): HVNet(
    (vfe): HVFeatureNetFinal(
      (AVFE_point_feature_fc): Sequential(
        (0): Linear(in_features=10, out_features=64, bias=False)
        (1): Empty()
        (2): Empty()
      )
      (AVFEO_point_feature_fc): Sequential(
        (0): Linear(in_features=384, out_features=128, bias=False)
        (1): Empty()
        (2): Empty()
      )
      (AVFE_Attention_feature_fc): Sequential(
        (0): Linear(in_features=20, out_features=64, bias=False)
        (1): Empty()
        (2): Empty()
      )
      (AVFEO_Attention_feature_fc): Sequential(
        (0): Linear(in_features=20, out_features=128, bias=False)
        (1): Empty()
        (2): Empty()
      )
      (AVFE_MID): Sequential(
        (0): Empty()
        (1): ReLU()
      )
      (AVFEO_MID): Sequential(
        (0): Empty()
        (1): ReLU()
      )
      (sigmoid): Sigmoid()
    )
    (rpn_head): HVHead(
      (blocks): ModuleList(
        (0): ModuleList(
          (0): Sequential(
            (0): Conv2d(128, 128, kernel_size=(3, 3), stride=(1, 1), padding=(1, 1), bias=False)
            (1): BatchNorm2d(128, eps=0.001, momentum=0.01, affine=True, track_running_stats=True)
            (2): ReLU()
            (3): Conv2d(128, 64, kernel_size=(3, 3), stride=(1, 1), padding=(1, 1), bias=False)
            (4): BatchNorm2d(64, eps=0.001, momentum=0.01, affine=True, track_running_stats=True)
            (5): ReLU()
            (6): Conv2d(64, 64, kernel_size=(3, 3), stride=(1, 1), padding=(1, 1), bias=False)
            (7): BatchNorm2d(64, eps=0.001, momentum=0.01, affine=True, track_running_stats=True)
            (8): ReLU()
            (9): Conv2d(64, 64, kernel_size=(3, 3), stride=(1, 1), padding=(1, 1), bias=False)
            (10): BatchNorm2d(64, eps=0.001, momentum=0.01, affine=True, track_running_stats=True)
            (11): ReLU()
          )
          (1): Sequential(
            (0): Conv2d(64, 128, kernel_size=(1, 1), stride=(1, 1), bias=False)
            (1): BatchNorm2d(128, eps=0.001, momentum=0.01, affine=True, track_running_stats=True)
            (2): ReLU()
          )
        )
        (1): ModuleList(
          (0): Sequential(
            (0): Conv2d(64, 128, kernel_size=(3, 3), stride=(2, 2), padding=(1, 1), bias=False)
            (1): BatchNorm2d(128, eps=0.001, momentum=0.01, affine=True, track_running_stats=True)
            (2): ReLU()
          )
          (1): Sequential(
            (0): Conv2d(256, 128, kernel_size=(3, 3), stride=(1, 1), padding=(1, 1), bias=False)
            (1): BatchNorm2d(128, eps=0.001, momentum=0.01, affine=True, track_running_stats=True)
            (2): ReLU()
            (3): Conv2d(128, 128, kernel_size=(3, 3), stride=(1, 1), padding=(1, 1), bias=False)
            (4): BatchNorm2d(128, eps=0.001, momentum=0.01, affine=True, track_running_stats=True)
            (5): ReLU()
            (6): Conv2d(128, 128, kernel_size=(3, 3), stride=(1, 1), padding=(1, 1), bias=False)
            (7): BatchNorm2d(128, eps=0.001, momentum=0.01, affine=True, track_running_stats=True)
            (8): ReLU()
            (9): Conv2d(128, 128, kernel_size=(3, 3), stride=(1, 1), padding=(1, 1), bias=False)
            (10): BatchNorm2d(128, eps=0.001, momentum=0.01, affine=True, track_running_stats=True)
            (11): ReLU()
            (12): Conv2d(128, 128, kernel_size=(3, 3), stride=(1, 1), padding=(1, 1), bias=False)
            (13): BatchNorm2d(128, eps=0.001, momentum=0.01, affine=True, track_running_stats=True)
            (14): ReLU()
          )
          (2): Sequential(
            (0): Conv2d(128, 128, kernel_size=(1, 1), stride=(1, 1), bias=False)
            (1): BatchNorm2d(128, eps=0.001, momentum=0.01, affine=True, track_running_stats=True)
            (2): ReLU()
          )
        )
        (2): ModuleList(
          (0): Sequential(
            (0): Conv2d(128, 256, kernel_size=(3, 3), stride=(2, 2), padding=(1, 1), bias=False)
            (1): BatchNorm2d(256, eps=0.001, momentum=0.01, affine=True, track_running_stats=True)
            (2): ReLU()
          )
          (1): Sequential(
            (0): Conv2d(384, 256, kernel_size=(3, 3), stride=(1, 1), padding=(1, 1), bias=False)
            (1): BatchNorm2d(256, eps=0.001, momentum=0.01, affine=True, track_running_stats=True)
            (2): ReLU()
            (3): Conv2d(256, 256, kernel_size=(3, 3), stride=(1, 1), padding=(1, 1), bias=False)
            (4): BatchNorm2d(256, eps=0.001, momentum=0.01, affine=True, track_running_stats=True)
            (5): ReLU()
            (6): Conv2d(256, 256, kernel_size=(3, 3), stride=(1, 1), padding=(1, 1), bias=False)
            (7): BatchNorm2d(256, eps=0.001, momentum=0.01, affine=True, track_running_stats=True)
            (8): ReLU()
            (9): Conv2d(256, 256, kernel_size=(3, 3), stride=(1, 1), padding=(1, 1), bias=False)
            (10): BatchNorm2d(256, eps=0.001, momentum=0.01, affine=True, track_running_stats=True)
            (11): ReLU()
            (12): Conv2d(256, 256, kernel_size=(3, 3), stride=(1, 1), padding=(1, 1), bias=False)
            (13): BatchNorm2d(256, eps=0.001, momentum=0.01, affine=True, track_running_stats=True)
            (14): ReLU()
          )
          (2): Sequential(
            (0): Conv2d(256, 128, kernel_size=(1, 1), stride=(1, 1), bias=False)
            (1): BatchNorm2d(128, eps=0.001, momentum=0.01, affine=True, track_running_stats=True)
            (2): ReLU()
          )
        )
      )
      (deblocks): ModuleList(
        (0): ModuleList(
          (0): Sequential(
            (0): ConvTranspose2d(128, 128, kernel_size=(2, 2), stride=(2, 2), bias=False)
            (1): BatchNorm2d(128, eps=0.001, momentum=0.01, affine=True, track_running_stats=True)
            (2): ReLU()
          )
          (1): Sequential(
            (0): Conv2d(256, 128, kernel_size=(3, 3), stride=(1, 1), padding=(1, 1), bias=False)
            (1): BatchNorm2d(128, eps=0.001, momentum=0.01, affine=True, track_running_stats=True)
            (2): ReLU()
            (3): ConvTranspose2d(128, 128, kernel_size=(1, 1), stride=(1, 1), bias=False)
            (4): BatchNorm2d(128, eps=0.001, momentum=0.01, affine=True, track_running_stats=True)
            (5): ReLU()
          )
        )
        (1): ModuleList(
          (0): Sequential(
            (0): ConvTranspose2d(128, 128, kernel_size=(2, 2), stride=(2, 2), bias=False)
            (1): BatchNorm2d(128, eps=0.001, momentum=0.01, affine=True, track_running_stats=True)
            (2): ReLU()
          )
          (1): Sequential(
            (0): Conv2d(256, 128, kernel_size=(3, 3), stride=(1, 1), padding=(1, 1), bias=False)
            (1): BatchNorm2d(128, eps=0.001, momentum=0.01, affine=True, track_running_stats=True)
            (2): ReLU()
            (3): ConvTranspose2d(128, 128, kernel_size=(2, 2), stride=(2, 2), bias=False)
            (4): BatchNorm2d(128, eps=0.001, momentum=0.01, affine=True, track_running_stats=True)
            (5): ReLU()
          )
        )
        (2): Sequential(
          (0): Conv2d(128, 128, kernel_size=(3, 3), stride=(1, 1), padding=(1, 1), bias=False)
          (1): BatchNorm2d(128, eps=0.001, momentum=0.01, affine=True, track_running_stats=True)
          (2): ReLU()
          (3): ConvTranspose2d(128, 128, kernel_size=(4, 4), stride=(4, 4), bias=False)
          (4): BatchNorm2d(128, eps=0.001, momentum=0.01, affine=True, track_running_stats=True)
          (5): ReLU()
        )
      )
      (final_feature_blocks): ModuleList(
        (0): Sequential(
          (0): Conv2d(384, 128, kernel_size=(3, 3), stride=(2, 2), padding=(1, 1), bias=False)
          (1): BatchNorm2d(128, eps=0.001, momentum=0.01, affine=True, track_running_stats=True)
          (2): ReLU()
        )
        (1): Sequential(
          (0): Conv2d(128, 128, kernel_size=(3, 3), stride=(2, 2), padding=(1, 1), bias=False)
          (1): BatchNorm2d(128, eps=0.001, momentum=0.01, affine=True, track_running_stats=True)
          (2): ReLU()
        )
      )
      (output_blocks): ModuleList(
        (0): ModuleList(
          (0): Conv2d(384, 12, kernel_size=(1, 1), stride=(1, 1))
          (1): Conv2d(384, 40, kernel_size=(1, 1), stride=(1, 1))
        )
        (1): ModuleList(
          (0): Conv2d(128, 12, kernel_size=(1, 1), stride=(1, 1))
          (1): Conv2d(128, 40, kernel_size=(1, 1), stride=(1, 1))
        )
        (2): ModuleList(
          (0): Conv2d(128, 12, kernel_size=(1, 1), stride=(1, 1))
          (1): Conv2d(128, 40, kernel_size=(1, 1), stride=(1, 1))
        )
      )
    )
  )
)
2020-07-01 02:38:06,640   INFO  **********************Start training hvnetcorner(10_feature_head_norm_fix_target_bug)**********************
2020-07-01 17:13:11,347   INFO  **********************End training**********************
